…
2018-03-08 18:18:55.665427: I tensorflow/stream_executor/cuda/cuda_diagnostics.cc:189] libcuda reported version is: 390.30.0
2018-03-08 18:18:55.665467: I tensorflow/stream_executor/cuda/cuda_diagnostics.cc:193] kernel reported version is: 390.30.0
2018-03-08 18:18:55.665474: I tensorflow/stream_executor/cuda/cuda_diagnostics.cc:300] kernel version seems to match DSO: 390.30.0
_________________________________________________________________
Layer (type)                 Output Shape              Param #   
=================================================================
conv2d_1 (Conv2D)            (None, 120, 96, 32)       896       
_________________________________________________________________
leaky_re_lu_1 (LeakyReLU)    (None, 120, 96, 32)       0         
_________________________________________________________________
dropout_1 (Dropout)          (None, 120, 96, 32)       0         
_________________________________________________________________
conv2d_2 (Conv2D)            (None, 60, 48, 64)        18496     
_________________________________________________________________
zero_padding2d_1 (ZeroPaddin (None, 61, 49, 64)        0         
_________________________________________________________________
leaky_re_lu_2 (LeakyReLU)    (None, 61, 49, 64)        0         
_________________________________________________________________
dropout_2 (Dropout)          (None, 61, 49, 64)        0         
_________________________________________________________________
batch_normalization_1 (Batch (None, 61, 49, 64)        256       
_________________________________________________________________
conv2d_3 (Conv2D)            (None, 31, 25, 128)       73856     
_________________________________________________________________
leaky_re_lu_3 (LeakyReLU)    (None, 31, 25, 128)       0         
_________________________________________________________________
dropout_3 (Dropout)          (None, 31, 25, 128)       0         
_________________________________________________________________
batch_normalization_2 (Batch (None, 31, 25, 128)       512       
_________________________________________________________________
conv2d_4 (Conv2D)            (None, 31, 25, 256)       295168    
_________________________________________________________________
leaky_re_lu_4 (LeakyReLU)    (None, 31, 25, 256)       0         
_________________________________________________________________
dropout_4 (Dropout)          (None, 31, 25, 256)       0         
_________________________________________________________________
flatten_1 (Flatten)          (None, 198400)            0         
_________________________________________________________________
dense_1 (Dense)              (None, 1)                 198401    
=================================================================
Total params: 587,585
Trainable params: 587,201
Non-trainable params: 384
_________________________________________________________________
_________________________________________________________________
Layer (type)                 Output Shape              Param #   
=================================================================
dense_2 (Dense)              (None, 8640)              872640    
_________________________________________________________________
reshape_1 (Reshape)          (None, 60, 48, 3)         0         
_________________________________________________________________
batch_normalization_3 (Batch (None, 60, 48, 3)         12        
_________________________________________________________________
up_sampling2d_1 (UpSampling2 (None, 120, 96, 3)        0         
_________________________________________________________________
conv2d_5 (Conv2D)            (None, 120, 96, 64)       3136      
_________________________________________________________________
activation_1 (Activation)    (None, 120, 96, 64)       0         
_________________________________________________________________
batch_normalization_4 (Batch (None, 120, 96, 64)       256       
_________________________________________________________________
up_sampling2d_2 (UpSampling2 (None, 240, 192, 64)      0         
_________________________________________________________________
conv2d_6 (Conv2D)            (None, 240, 192, 16)      4112      
_________________________________________________________________
activation_2 (Activation)    (None, 240, 192, 16)      0         
_________________________________________________________________
batch_normalization_5 (Batch (None, 240, 192, 16)      64        
_________________________________________________________________
conv2d_7 (Conv2D)            (None, 240, 192, 3)       771       
_________________________________________________________________
activation_3 (Activation)    (None, 240, 192, 3)       0         
=================================================================
Total params: 880,991
Trainable params: 880,825
Non-trainable params: 166
_________________________________________________________________
100%|██████████████████████████████████████████████████████████████████████████████████████████████████████████████████████████████████████████████████████████████████| 1000/1000 [00:05<00:00, 167.26it/s]
…
